…
            "Found 1315 images belonging to 2 classes.\n",
            "<keras.preprocessing.image.DirectoryIterator object at 0x7f6df028a5b0>\n",
            "Found 466 images belonging to 2 classes.\n",
            "<keras.preprocessing.image.DirectoryIterator object at 0x7f6df028a310>\n",
            "Model: \"sequential_1\"\n",
            "_________________________________________________________________\n",
            " Layer (type)                Output Shape              Param #   \n",
            "=================================================================\n",
            " conv2d_2 (Conv2D)           (None, 150, 150, 100)     2800      \n",
            "                                                                 \n",
            " max_pooling2d_2 (MaxPooling  (None, 75, 75, 100)      0         \n",
            " 2D)                                                             \n",
            "                                                                 \n",
            " dropout_2 (Dropout)         (None, 75, 75, 100)       0         \n",
            "                                                                 \n",
            " conv2d_3 (Conv2D)           (None, 75, 75, 100)       90100     \n",
            "                                                                 \n",
            " max_pooling2d_3 (MaxPooling  (None, 37, 37, 100)      0         \n",
            " 2D)                                                             \n",
            "                                                                 \n",
            " flatten_1 (Flatten)         (None, 136900)            0         \n",
            "                                                                 \n",
            " dense_2 (Dense)             (None, 50)                6845050   \n",
            "                                                                 \n",
            " dropout_3 (Dropout)         (None, 50)                0         \n",
            "                                                                 \n",
            " dense_3 (Dense)             (None, 2)                 102       \n",
            "                                                                 \n",
            "=================================================================\n",
            "Total params: 6,938,052\n",
            "Trainable params: 6,938,052\n",
            "Non-trainable params: 0\n",
            "_________________________________________________________________\n"
          ]
        },
…
